…
\if{html}{\out{<div class="sourceCode r">}}\preformatted{# instantiate a VGG16 model
conv_base <- application_vgg16(
weights = "imagenet",
include_top = FALSE,
input_shape = c(150, 150, 3)
)

# freeze it's weights
freeze_weights(conv_base)

# Note the "Trainable" column
conv_base
}\if{html}{\out{</div>}}

\if{html}{\out{<div class="sourceCode">}}\preformatted{## Model: "vgg16"
## +-----------------------------+--------------------------+---------+-------+
## | Layer (type)                | Output Shape             | Param # | Trai… |
## +=============================+==========================+=========+=======+
## | input_layer (InputLayer)    | (None, 150, 150, 3)      |       0 |   -   |
## +-----------------------------+--------------------------+---------+-------+
## | block1_conv1 (Conv2D)       | (None, 150, 150, 64)     |   1,792 |   N   |
## +-----------------------------+--------------------------+---------+-------+
## | block1_conv2 (Conv2D)       | (None, 150, 150, 64)     |  36,928 |   N   |
## +-----------------------------+--------------------------+---------+-------+
## | block1_pool (MaxPooling2D)  | (None, 75, 75, 64)       |       0 |   -   |
## +-----------------------------+--------------------------+---------+-------+
## | block2_conv1 (Conv2D)       | (None, 75, 75, 128)      |  73,856 |   N   |
## +-----------------------------+--------------------------+---------+-------+
## | block2_conv2 (Conv2D)       | (None, 75, 75, 128)      | 147,584 |   N   |
## +-----------------------------+--------------------------+---------+-------+
## | block2_pool (MaxPooling2D)  | (None, 37, 37, 128)      |       0 |   -   |
## +-----------------------------+--------------------------+---------+-------+
## | block3_conv1 (Conv2D)       | (None, 37, 37, 256)      | 295,168 |   N   |
## +-----------------------------+--------------------------+---------+-------+
## | block3_conv2 (Conv2D)       | (None, 37, 37, 256)      | 590,080 |   N   |
## +-----------------------------+--------------------------+---------+-------+
## | block3_conv3 (Conv2D)       | (None, 37, 37, 256)      | 590,080 |   N   |
## +-----------------------------+--------------------------+---------+-------+
## | block3_pool (MaxPooling2D)  | (None, 18, 18, 256)      |       0 |   -   |
## +-----------------------------+--------------------------+---------+-------+
## | block4_conv1 (Conv2D)       | (None, 18, 18, 512)      | 1,180,… |   N   |
## +-----------------------------+--------------------------+---------+-------+
## | block4_conv2 (Conv2D)       | (None, 18, 18, 512)      | 2,359,… |   N   |
## +-----------------------------+--------------------------+---------+-------+
## | block4_conv3 (Conv2D)       | (None, 18, 18, 512)      | 2,359,… |   N   |
## +-----------------------------+--------------------------+---------+-------+
## | block4_pool (MaxPooling2D)  | (None, 9, 9, 512)        |       0 |   -   |
## +-----------------------------+--------------------------+---------+-------+
## | block5_conv1 (Conv2D)       | (None, 9, 9, 512)        | 2,359,… |   N   |
## +-----------------------------+--------------------------+---------+-------+
## | block5_conv2 (Conv2D)       | (None, 9, 9, 512)        | 2,359,… |   N   |
## +-----------------------------+--------------------------+---------+-------+
## | block5_conv3 (Conv2D)       | (None, 9, 9, 512)        | 2,359,… |   N   |
## +-----------------------------+--------------------------+---------+-------+
## | block5_pool (MaxPooling2D)  | (None, 4, 4, 512)        |       0 |   -   |
## +-----------------------------+--------------------------+---------+-------+
##  Total params: 14,714,688 (56.13 MB)
##  Trainable params: 0 (0.00 B)
##  Non-trainable params: 14,714,688 (56.13 MB)

}\if{html}{\out{</div>}}

\if{html}{\out{<div class="sourceCode r">}}\preformatted{
# create a composite model that includes the base + more layers
model <- keras_model_sequential(input_batch_shape = shape(conv_base$input)) |>
…
layer_dense(units = 256, activation = "relu") |>
layer_dense(units = 1, activation = "sigmoid")

# compile
model |> compile(
loss = "binary_crossentropy",
optimizer = optimizer_rmsprop(learning_rate = 2e-5),
metrics = c("accuracy")
)

model
}\if{html}{\out{</div>}}

\if{html}{\out{<div class="sourceCode">}}\preformatted{## Model: "sequential"
## +-----------------------------+--------------------------+---------+-------+
## | Layer (type)                | Output Shape             | Param # | Trai… |
## +=============================+==========================+=========+=======+
## | vgg16 (Functional)          | (None, 4, 4, 512)        | 14,714… |   N   |
## +-----------------------------+--------------------------+---------+-------+
## | flatten (Flatten)           | (None, 8192)             |       0 |   -   |
## +-----------------------------+--------------------------+---------+-------+
## | dense_1 (Dense)             | (None, 256)              | 2,097,… |   Y   |
## +-----------------------------+--------------------------+---------+-------+
## | dense (Dense)               | (None, 1)                |     257 |   Y   |
## +-----------------------------+--------------------------+---------+-------+
##  Total params: 16,812,353 (64.13 MB)
##  Trainable params: 2,097,665 (8.00 MB)
##  Non-trainable params: 14,714,688 (56.13 MB)

}\if{html}{\out{</div>}}

\if{html}{\out{<div class="sourceCode r">}}\preformatted{print(model, expand_nested = TRUE)
}\if{html}{\out{</div>}}

\if{html}{\out{<div class="sourceCode">}}\preformatted{## Model: "sequential"
## +-----------------------------+--------------------------+---------+-------+
## | Layer (type)                | Output Shape             | Param # | Trai… |
## +=============================+==========================+=========+=======+
## | vgg16 (Functional)          | (None, 4, 4, 512)        | 14,714… |   N   |
## +-----------------------------+--------------------------+---------+-------+
## |    > input_layer            | (None, 150, 150, 3)      |       0 |   -   |
## | (InputLayer)                |                          |         |       |
## +-----------------------------+--------------------------+---------+-------+
## |    > block1_conv1 (Conv2D)  | (None, 150, 150, 64)     |   1,792 |   N   |
## +-----------------------------+--------------------------+---------+-------+
## |    > block1_conv2 (Conv2D)  | (None, 150, 150, 64)     |  36,928 |   N   |
## +-----------------------------+--------------------------+---------+-------+
## |    > block1_pool            | (None, 75, 75, 64)       |       0 |   -   |
## | (MaxPooling2D)              |                          |         |       |
## +-----------------------------+--------------------------+---------+-------+
## |    > block2_conv1 (Conv2D)  | (None, 75, 75, 128)      |  73,856 |   N   |
## +-----------------------------+--------------------------+---------+-------+
## |    > block2_conv2 (Conv2D)  | (None, 75, 75, 128)      | 147,584 |   N   |
## +-----------------------------+--------------------------+---------+-------+
## |    > block2_pool            | (None, 37, 37, 128)      |       0 |   -   |
## | (MaxPooling2D)              |                          |         |       |
## +-----------------------------+--------------------------+---------+-------+
## |    > block3_conv1 (Conv2D)  | (None, 37, 37, 256)      | 295,168 |   N   |
## +-----------------------------+--------------------------+---------+-------+
## |    > block3_conv2 (Conv2D)  | (None, 37, 37, 256)      | 590,080 |   N   |
## +-----------------------------+--------------------------+---------+-------+
## |    > block3_conv3 (Conv2D)  | (None, 37, 37, 256)      | 590,080 |   N   |
## +-----------------------------+--------------------------+---------+-------+
## |    > block3_pool            | (None, 18, 18, 256)      |       0 |   -   |
## | (MaxPooling2D)              |                          |         |       |
## +-----------------------------+--------------------------+---------+-------+
## |    > block4_conv1 (Conv2D)  | (None, 18, 18, 512)      | 1,180,… |   N   |
## +-----------------------------+--------------------------+---------+-------+
## |    > block4_conv2 (Conv2D)  | (None, 18, 18, 512)      | 2,359,… |   N   |
## +-----------------------------+--------------------------+---------+-------+
## |    > block4_conv3 (Conv2D)  | (None, 18, 18, 512)      | 2,359,… |   N   |
## +-----------------------------+--------------------------+---------+-------+
## |    > block4_pool            | (None, 9, 9, 512)        |       0 |   -   |
## | (MaxPooling2D)              |                          |         |       |
## +-----------------------------+--------------------------+---------+-------+
## |    > block5_conv1 (Conv2D)  | (None, 9, 9, 512)        | 2,359,… |   N   |
## +-----------------------------+--------------------------+---------+-------+
## |    > block5_conv2 (Conv2D)  | (None, 9, 9, 512)        | 2,359,… |   N   |
## +-----------------------------+--------------------------+---------+-------+
## |    > block5_conv3 (Conv2D)  | (None, 9, 9, 512)        | 2,359,… |   N   |
## +-----------------------------+--------------------------+---------+-------+
## |    > block5_pool            | (None, 4, 4, 512)        |       0 |   -   |
## | (MaxPooling2D)              |                          |         |       |
## +-----------------------------+--------------------------+---------+-------+
## | flatten (Flatten)           | (None, 8192)             |       0 |   -   |
## +-----------------------------+--------------------------+---------+-------+
## | dense_1 (Dense)             | (None, 256)              | 2,097,… |   Y   |
## +-----------------------------+--------------------------+---------+-------+
## | dense (Dense)               | (None, 1)                |     257 |   Y   |
## +-----------------------------+--------------------------+---------+-------+
##  Total params: 16,812,353 (64.13 MB)
##  Trainable params: 2,097,665 (8.00 MB)
##  Non-trainable params: 14,714,688 (56.13 MB)

}\if{html}{\out{</div>}}

\if{html}{\out{<div class="sourceCode r">}}\preformatted{

# unfreeze weights from "block5_conv1" on
unfreeze_weights(conv_base, from = "block5_conv1")

# compile again since we froze or unfroze weights
model |> compile(
loss = "binary_crossentropy",
optimizer = optimizer_rmsprop(learning_rate = 2e-5),
metrics = c("accuracy")
)

conv_base
}\if{html}{\out{</div>}}

\if{html}{\out{<div class="sourceCode">}}\preformatted{## Model: "vgg16"
## +-----------------------------+--------------------------+---------+-------+
## | Layer (type)                | Output Shape             | Param # | Trai… |
## +=============================+==========================+=========+=======+
## | input_layer (InputLayer)    | (None, 150, 150, 3)      |       0 |   -   |
## +-----------------------------+--------------------------+---------+-------+
## | block1_conv1 (Conv2D)       | (None, 150, 150, 64)     |   1,792 |   N   |
## +-----------------------------+--------------------------+---------+-------+
## | block1_conv2 (Conv2D)       | (None, 150, 150, 64)     |  36,928 |   N   |
## +-----------------------------+--------------------------+---------+-------+
## | block1_pool (MaxPooling2D)  | (None, 75, 75, 64)       |       0 |   -   |
## +-----------------------------+--------------------------+---------+-------+
## | block2_conv1 (Conv2D)       | (None, 75, 75, 128)      |  73,856 |   N   |
## +-----------------------------+--------------------------+---------+-------+
## | block2_conv2 (Conv2D)       | (None, 75, 75, 128)      | 147,584 |   N   |
## +-----------------------------+--------------------------+---------+-------+
## | block2_pool (MaxPooling2D)  | (None, 37, 37, 128)      |       0 |   -   |
## +-----------------------------+--------------------------+---------+-------+
## | block3_conv1 (Conv2D)       | (None, 37, 37, 256)      | 295,168 |   N   |
## +-----------------------------+--------------------------+---------+-------+
## | block3_conv2 (Conv2D)       | (None, 37, 37, 256)      | 590,080 |   N   |
## +-----------------------------+--------------------------+---------+-------+
## | block3_conv3 (Conv2D)       | (None, 37, 37, 256)      | 590,080 |   N   |
## +-----------------------------+--------------------------+---------+-------+
## | block3_pool (MaxPooling2D)  | (None, 18, 18, 256)      |       0 |   -   |
## +-----------------------------+--------------------------+---------+-------+
## | block4_conv1 (Conv2D)       | (None, 18, 18, 512)      | 1,180,… |   N   |
## +-----------------------------+--------------------------+---------+-------+
## | block4_conv2 (Conv2D)       | (None, 18, 18, 512)      | 2,359,… |   N   |
## +-----------------------------+--------------------------+---------+-------+
## | block4_conv3 (Conv2D)       | (None, 18, 18, 512)      | 2,359,… |   N   |
## +-----------------------------+--------------------------+---------+-------+
## | block4_pool (MaxPooling2D)  | (None, 9, 9, 512)        |       0 |   -   |
## +-----------------------------+--------------------------+---------+-------+
## | block5_conv1 (Conv2D)       | (None, 9, 9, 512)        | 2,359,… |   Y   |
## +-----------------------------+--------------------------+---------+-------+
## | block5_conv2 (Conv2D)       | (None, 9, 9, 512)        | 2,359,… |   Y   |
## +-----------------------------+--------------------------+---------+-------+
## | block5_conv3 (Conv2D)       | (None, 9, 9, 512)        | 2,359,… |   Y   |
## +-----------------------------+--------------------------+---------+-------+
## | block5_pool (MaxPooling2D)  | (None, 4, 4, 512)        |       0 |   -   |
## +-----------------------------+--------------------------+---------+-------+
##  Total params: 14,714,688 (56.13 MB)
##  Trainable params: 7,079,424 (27.01 MB)
##  Non-trainable params: 7,635,264 (29.13 MB)

}\if{html}{\out{</div>}}

\if{html}{\out{<div class="sourceCode r">}}\preformatted{print(model, expand_nested = TRUE)
}\if{html}{\out{</div>}}

\if{html}{\out{<div class="sourceCode">}}\preformatted{## Model: "sequential"
## +-----------------------------+--------------------------+---------+-------+
## | Layer (type)                | Output Shape             | Param # | Trai… |
## +=============================+==========================+=========+=======+
## | vgg16 (Functional)          | (None, 4, 4, 512)        | 14,714… |   Y   |
## +-----------------------------+--------------------------+---------+-------+
## |    > input_layer            | (None, 150, 150, 3)      |       0 |   -   |
## | (InputLayer)                |                          |         |       |
## +-----------------------------+--------------------------+---------+-------+
## |    > block1_conv1 (Conv2D)  | (None, 150, 150, 64)     |   1,792 |   N   |
## +-----------------------------+--------------------------+---------+-------+
## |    > block1_conv2 (Conv2D)  | (None, 150, 150, 64)     |  36,928 |   N   |
## +-----------------------------+--------------------------+---------+-------+
## |    > block1_pool            | (None, 75, 75, 64)       |       0 |   -   |
## | (MaxPooling2D)              |                          |         |       |
## +-----------------------------+--------------------------+---------+-------+
## |    > block2_conv1 (Conv2D)  | (None, 75, 75, 128)      |  73,856 |   N   |
## +-----------------------------+--------------------------+---------+-------+
## |    > block2_conv2 (Conv2D)  | (None, 75, 75, 128)      | 147,584 |   N   |
## +-----------------------------+--------------------------+---------+-------+
## |    > block2_pool            | (None, 37, 37, 128)      |       0 |   -   |
## | (MaxPooling2D)              |                          |         |       |
## +-----------------------------+--------------------------+---------+-------+
## |    > block3_conv1 (Conv2D)  | (None, 37, 37, 256)      | 295,168 |   N   |
## +-----------------------------+--------------------------+---------+-------+
## |    > block3_conv2 (Conv2D)  | (None, 37, 37, 256)      | 590,080 |   N   |
## +-----------------------------+--------------------------+---------+-------+
## |    > block3_conv3 (Conv2D)  | (None, 37, 37, 256)      | 590,080 |   N   |
## +-----------------------------+--------------------------+---------+-------+
## |    > block3_pool            | (None, 18, 18, 256)      |       0 |   -   |
## | (MaxPooling2D)              |                          |         |       |
## +-----------------------------+--------------------------+---------+-------+
## |    > block4_conv1 (Conv2D)  | (None, 18, 18, 512)      | 1,180,… |   N   |
## +-----------------------------+--------------------------+---------+-------+
## |    > block4_conv2 (Conv2D)  | (None, 18, 18, 512)      | 2,359,… |   N   |
## +-----------------------------+--------------------------+---------+-------+
## |    > block4_conv3 (Conv2D)  | (None, 18, 18, 512)      | 2,359,… |   N   |
## +-----------------------------+--------------------------+---------+-------+
## |    > block4_pool            | (None, 9, 9, 512)        |       0 |   -   |
## | (MaxPooling2D)              |                          |         |       |
## +-----------------------------+--------------------------+---------+-------+
## |    > block5_conv1 (Conv2D)  | (None, 9, 9, 512)        | 2,359,… |   Y   |
## +-----------------------------+--------------------------+---------+-------+
## |    > block5_conv2 (Conv2D)  | (None, 9, 9, 512)        | 2,359,… |   Y   |
## +-----------------------------+--------------------------+---------+-------+
## |    > block5_conv3 (Conv2D)  | (None, 9, 9, 512)        | 2,359,… |   Y   |
## +-----------------------------+--------------------------+---------+-------+
## |    > block5_pool            | (None, 4, 4, 512)        |       0 |   -   |
## | (MaxPooling2D)              |                          |         |       |
## +-----------------------------+--------------------------+---------+-------+
## | flatten (Flatten)           | (None, 8192)             |       0 |   -   |
## +-----------------------------+--------------------------+---------+-------+
## | dense_1 (Dense)             | (None, 256)              | 2,097,… |   Y   |
## +-----------------------------+--------------------------+---------+-------+
## | dense (Dense)               | (None, 1)                |     257 |   Y   |
## +-----------------------------+--------------------------+---------+-------+
##  Total params: 16,812,353 (64.13 MB)
##  Trainable params: 9,177,089 (35.01 MB)
##  Non-trainable params: 7,635,264 (29.13 MB)

}\if{html}{\out{</div>}}

\if{html}{\out{<div class="sourceCode r">}}\preformatted{
# freeze only the last 5 layers
freeze_weights(conv_base, from = -5)
conv_base
}\if{html}{\out{</div>}}

\if{html}{\out{<div class="sourceCode">}}\preformatted{## Model: "vgg16"
## +-----------------------------+--------------------------+---------+-------+
## | Layer (type)                | Output Shape             | Param # | Trai… |
## +=============================+==========================+=========+=======+
## | input_layer (InputLayer)    | (None, 150, 150, 3)      |       0 |   -   |
## +-----------------------------+--------------------------+---------+-------+
## | block1_conv1 (Conv2D)       | (None, 150, 150, 64)     |   1,792 |   Y   |
## +-----------------------------+--------------------------+---------+-------+
## | block1_conv2 (Conv2D)       | (None, 150, 150, 64)     |  36,928 |   Y   |
## +-----------------------------+--------------------------+---------+-------+
## | block1_pool (MaxPooling2D)  | (None, 75, 75, 64)       |       0 |   -   |
## +-----------------------------+--------------------------+---------+-------+
## | block2_conv1 (Conv2D)       | (None, 75, 75, 128)      |  73,856 |   Y   |
## +-----------------------------+--------------------------+---------+-------+
## | block2_conv2 (Conv2D)       | (None, 75, 75, 128)      | 147,584 |   Y   |
## +-----------------------------+--------------------------+---------+-------+
## | block2_pool (MaxPooling2D)  | (None, 37, 37, 128)      |       0 |   -   |
## +-----------------------------+--------------------------+---------+-------+
## | block3_conv1 (Conv2D)       | (None, 37, 37, 256)      | 295,168 |   Y   |
## +-----------------------------+--------------------------+---------+-------+
## | block3_conv2 (Conv2D)       | (None, 37, 37, 256)      | 590,080 |   Y   |
## +-----------------------------+--------------------------+---------+-------+
## | block3_conv3 (Conv2D)       | (None, 37, 37, 256)      | 590,080 |   Y   |
## +-----------------------------+--------------------------+---------+-------+
## | block3_pool (MaxPooling2D)  | (None, 18, 18, 256)      |       0 |   -   |
## +-----------------------------+--------------------------+---------+-------+
## | block4_conv1 (Conv2D)       | (None, 18, 18, 512)      | 1,180,… |   Y   |
## +-----------------------------+--------------------------+---------+-------+
## | block4_conv2 (Conv2D)       | (None, 18, 18, 512)      | 2,359,… |   Y   |
## +-----------------------------+--------------------------+---------+-------+
## | block4_conv3 (Conv2D)       | (None, 18, 18, 512)      | 2,359,… |   Y   |
## +-----------------------------+--------------------------+---------+-------+
## | block4_pool (MaxPooling2D)  | (None, 9, 9, 512)        |       0 |   -   |
## +-----------------------------+--------------------------+---------+-------+
## | block5_conv1 (Conv2D)       | (None, 9, 9, 512)        | 2,359,… |   N   |
## +-----------------------------+--------------------------+---------+-------+
## | block5_conv2 (Conv2D)       | (None, 9, 9, 512)        | 2,359,… |   N   |
## +-----------------------------+--------------------------+---------+-------+
## | block5_conv3 (Conv2D)       | (None, 9, 9, 512)        | 2,359,… |   N   |
## +-----------------------------+--------------------------+---------+-------+
## | block5_pool (MaxPooling2D)  | (None, 4, 4, 512)        |       0 |   -   |
## +-----------------------------+--------------------------+---------+-------+
##  Total params: 14,714,688 (56.13 MB)
##  Trainable params: 7,635,264 (29.13 MB)
##  Non-trainable params: 7,079,424 (27.01 MB)

}\if{html}{\out{</div>}}

\if{html}{\out{<div class="sourceCode r">}}\preformatted{# freeze only the last 5 layers, a different way
unfreeze_weights(conv_base, to = -6)
conv_base
}\if{html}{\out{</div>}}

\if{html}{\out{<div class="sourceCode">}}\preformatted{## Model: "vgg16"
## +-----------------------------+--------------------------+---------+-------+
## | Layer (type)                | Output Shape             | Param # | Trai… |
## +=============================+==========================+=========+=======+
## | input_layer (InputLayer)    | (None, 150, 150, 3)      |       0 |   -   |
## +-----------------------------+--------------------------+---------+-------+
## | block1_conv1 (Conv2D)       | (None, 150, 150, 64)     |   1,792 |   Y   |
## +-----------------------------+--------------------------+---------+-------+
## | block1_conv2 (Conv2D)       | (None, 150, 150, 64)     |  36,928 |   Y   |
## +-----------------------------+--------------------------+---------+-------+
## | block1_pool (MaxPooling2D)  | (None, 75, 75, 64)       |       0 |   -   |
## +-----------------------------+--------------------------+---------+-------+
## | block2_conv1 (Conv2D)       | (None, 75, 75, 128)      |  73,856 |   Y   |
## +-----------------------------+--------------------------+---------+-------+
## | block2_conv2 (Conv2D)       | (None, 75, 75, 128)      | 147,584 |   Y   |
## +-----------------------------+--------------------------+---------+-------+
## | block2_pool (MaxPooling2D)  | (None, 37, 37, 128)      |       0 |   -   |
## +-----------------------------+--------------------------+---------+-------+
## | block3_conv1 (Conv2D)       | (None, 37, 37, 256)      | 295,168 |   Y   |
## +-----------------------------+--------------------------+---------+-------+
## | block3_conv2 (Conv2D)       | (None, 37, 37, 256)      | 590,080 |   Y   |
## +-----------------------------+--------------------------+---------+-------+
## | block3_conv3 (Conv2D)       | (None, 37, 37, 256)      | 590,080 |   Y   |
## +-----------------------------+--------------------------+---------+-------+
## | block3_pool (MaxPooling2D)  | (None, 18, 18, 256)      |       0 |   -   |
## +-----------------------------+--------------------------+---------+-------+
## | block4_conv1 (Conv2D)       | (None, 18, 18, 512)      | 1,180,… |   Y   |
## +-----------------------------+--------------------------+---------+-------+
## | block4_conv2 (Conv2D)       | (None, 18, 18, 512)      | 2,359,… |   Y   |
## +-----------------------------+--------------------------+---------+-------+
## | block4_conv3 (Conv2D)       | (None, 18, 18, 512)      | 2,359,… |   Y   |
## +-----------------------------+--------------------------+---------+-------+
## | block4_pool (MaxPooling2D)  | (None, 9, 9, 512)        |       0 |   -   |
## +-----------------------------+--------------------------+---------+-------+
## | block5_conv1 (Conv2D)       | (None, 9, 9, 512)        | 2,359,… |   N   |
## +-----------------------------+--------------------------+---------+-------+
## | block5_conv2 (Conv2D)       | (None, 9, 9, 512)        | 2,359,… |   N   |
## +-----------------------------+--------------------------+---------+-------+
## | block5_conv3 (Conv2D)       | (None, 9, 9, 512)        | 2,359,… |   N   |
## +-----------------------------+--------------------------+---------+-------+
## | block5_pool (MaxPooling2D)  | (None, 4, 4, 512)        |       0 |   -   |
## +-----------------------------+--------------------------+---------+-------+
##  Total params: 14,714,688 (56.13 MB)
##  Trainable params: 7,635,264 (29.13 MB)
##  Non-trainable params: 7,079,424 (27.01 MB)

}\if{html}{\out{</div>}}

\if{html}{\out{<div class="sourceCode r">}}\preformatted{
# Freeze only layers of a certain type, e.g, BatchNorm layers
batch_norm_layer_class_name <- class(layer_batch_normalization())[1]
…
