…
 padding = \"same\") |>   layer_conv_2d(filters = 1, kernel_size = c(3, 3),                 activation = \"sigmoid\", padding = \"same\")  # Autoencoder autoencoder <- keras_model(input, dec) autoencoder |> compile(optimizer = \"adam\", loss = \"binary_crossentropy\") autoencoder |> summary() ## Model: \"functional_1\" ## ┏━━━━━━━━━━━━━━━━━━━━━━━━━━━━━━━━━┳━━━━━━━━━━━━━━━━━━━━━━━━┳━━━━━━━━━━━━━━━┓ ## ┃ Layer (type)                    ┃ Output Shape           ┃       Param # ┃ ## ┡━━━━━━━━━━━━━━━━━━━━━━━━━━━━━━━━━╇━━━━━━━━━━━━━━━━━━━━━━━━╇━━━━━━━━━━━━━━━┩ ## │ input_layer (InputLayer)        │ (None, 28, 28, 1)      │             0 │ ## ├─────────────────────────────────┼────────────────────────┼───────────────┤ ## │ conv2d_1 (Conv2D)               │ (None, 28, 28, 32)     │           320 │ ## ├─────────────────────────────────┼────────────────────────┼───────────────┤ ## │ max_pooling2d_1 (MaxPooling2D)  │ (None, 14, 14, 32)     │             0 │ ## ├─────────────────────────────────┼────────────────────────┼───────────────┤ ## │ conv2d (Conv2D)                 │ (None, 14, 14, 32)     │         9,248 │ ## ├─────────────────────────────────┼────────────────────────┼───────────────┤ ## │ max_pooling2d (MaxPooling2D)    │ (None, 7, 7, 32)       │             0 │ ## ├─────────────────────────────────┼────────────────────────┼───────────────┤ ## │ conv2d_transpose_1              │ (None, 14, 14, 32)     │         9,248 │ ## │ (Conv2DTranspose)               │                        │               │ ## ├─────────────────────────────────┼────────────────────────┼───────────────┤ ## │ conv2d_transpose                │ (None, 28, 28, 32)     │         9,248 │ ## │ (Conv2DTranspose)               │                        │               │ ## ├─────────────────────────────────┼────────────────────────┼───────────────┤ ## │ conv2d_2 (Conv2D)               │ (None, 28, 28, 1)      │           289 │ ## └─────────────────────────────────┴────────────────────────┴───────────────┘ ##  Total params: 28,353 (110.75 KB) ##  Trainable params: 28,353 (110.75 KB) ##  Non-trainable params: 0 (0.00 B) autoencoder |> fit(   x = train_data,   y = train_data,   epochs = 50,   batch_size = 128,   shuffle = TRUE,   validation_data = list(test_data, test_data), ) ## Epoch 1/50 ## 469/469 - 5s - 10ms/step -
…
r_max_pooling_2d(pool_size = c(2, 2)) |>   layer_conv_2d(filters = 64, kernel_size = c(3, 3), activation = \"relu\") |>   layer_max_pooling_2d(pool_size = c(2, 2)) |>   layer_flatten() |>   layer_dropout(rate = 0.5) |>   layer_dense(units = num_classes, activation = \"softmax\")  summary(model) ## Model: \"sequential\" ## ┏━━━━━━━━━━━━━━━━━━━━━━━━━━━━━━━━━┳━━━━━━━━━━━━━━━━━━━━━━━━┳━━━━━━━━━━━━━━━┓ ## ┃ Layer (type)                    ┃ Output Shape           ┃       Param # ┃ ## ┡━━━━━━━━━━━━━━━━━━━━━━━━━━━━━━━━━╇━━━━━━━━━━━━━━━━━━━━━━━━╇━━━━━━━━━━━━━━━┩ ## │ conv2d_1 (Conv2D)               │ (None, 26, 26, 32)     │           320 │ ## ├─────────────────────────────────┼────────────────────────┼───────────────┤ ## │ max_pooling2d_1 (MaxPooling2D)  │ (None, 13, 13, 32)     │             0 │ ## ├─────────────────────────────────┼────────────────────────┼───────────────┤ ## │ conv2d (Conv2D)                 │ (None, 11, 11, 64)     │        18,496 │ ## ├─────────────────────────────────┼────────────────────────┼───────────────┤ ## │ max_pooling2d (MaxPooling2D)    │ (None, 5, 5, 64)       │             0 │ ## ├─────────────────────────────────┼────────────────────────┼───────────────┤ ## │ flatten (Flatten)               │ (None, 1600)           │             0 │ ## ├─────────────────────────────────┼────────────────────────┼───────────────┤ ## │ dropout (Dropout)               │ (None, 1600)           │             0 │ ## ├─────────────────────────────────┼────────────────────────┼───────────────┤ ## │ dense (Dense)                   │ (None, 10)             │        16,010 │ ## └─────────────────────────────────┴────────────────────────┴───────────────┘ ##  Total params: 34,826 (136.04 KB) ##  Trainable params: 34,826 (136.04 KB) ##  Non-trainable params: 0 (0.00 B)"},{"path":"https://keras.posit.co/articles/examples/mnist_convnet.html","id":"train-the-model","dir":"Articles > Examples","previous_headings":"","what":"Train the model","title":"Simple MNIST convnet",
…
 keras_model_sequential(input_shape = ncol(train_features)) |>   layer_dense(256, activation = \"relu\") |>   layer_dense(256, activation = \"relu\") |>   layer_dropout(0.3) |>   layer_dense(256, activation = \"relu\") |>   layer_dropout(0.3) |>   layer_dense(1, activation = \"sigmoid\")  model ## Model: \"sequential\" ## ┏━━━━━━━━━━━━━━━━━━━━━━━━━━━━━━━━━┳━━━━━━━━━━━━━━━━━━━━━━━━┳━━━━━━━━━━━━━━━┓ ## ┃ Layer (type)                    ┃ Output Shape           ┃       Param # ┃ ## ┡━━━━━━━━━━━━━━━━━━━━━━━━━━━━━━━━━╇━━━━━━━━━━━━━━━━━━━━━━━━╇━━━━━━━━━━━━━━━┩ ## │ dense_3 (Dense)                 │ (None, 256)            │         7,936 │ ## ├─────────────────────────────────┼────────────────────────┼───────────────┤ ## │ dense_2 (Dense)                 │ (None, 256)            │        65,792 │ ## ├─────────────────────────────────┼────────────────────────┼───────────────┤ ## │ dropout_1 (Dropout)             │ (None, 256)            │             0 │ ## ├─────────────────────────────────┼────────────────────────┼───────────────┤ ## │ dense_1 (Dense)                 │ (None, 256)            │        65,792 │ ## ├─────────────────────────────────┼────────────────────────┼───────────────┤ ## │ dropout (Dropout)               │ (None, 256)            │             0 │ ## ├─────────────────────────────────┼────────────────────────┼───────────────┤ ## │ dense (Dense)                   │ (None, 1)              │           257 │ ## └─────────────────────────────────┴────────────────────────┴───────────────┘ ##  Total params: 139,777 (546.00 KB) ##  Trainable params: 139,777 (546.00 KB) ##  Non-trainable params: 0 (0.00 B)"},{"path":"https://keras.posit.co/articles/examples/structured_data/imbalanced_classification.html","id":"train-the-model-with-class_weight-argument","dir":"Articles > Examples > Structured_data","pre
…
ame\") |>     layer_batch_normalization() |>     layer_activation_relu() |>     # pooling     layer_global_average_pooling_1d() |>     # final output     layer_dense(num_classes, activation = \"softmax\")    keras_model(inputs, outputs) }  model <- make_model(input_shape = dim(x_train)[-1]) model ## Model: \"functional_1\" ## ┏━━━━━━━━━━━━━━━━━━━━━━━━━━━━━┳━━━━━━━━━━━━━━━━━━━━━━━┳━━━━━━━━━━━━┳━━━━━━━┓ ## ┃ Layer (type)                ┃ Output Shape          ┃    Param # ┃ Trai… ┃ ## ┡━━━━━━━━━━━━━━━━━━━━━━━━━━━━━╇━━━━━━━━━━━━━━━━━━━━━━━╇━━━━━━━━━━━━╇━━━━━━━┩ ## │ input_layer (InputLayer)    │ (None, 500, 1)        │          0 │   -   │ ## ├─────────────────────────────┼───────────────────────┼────────────┼───────┤ ## │ conv1d_2 (Conv1D)           │ (None, 500, 64)       │        256 │   Y   │ ## ├─────────────────────────────┼───────────────────────┼────────────┼───────┤ ## │ batch_normalization_2       │ (None, 500, 64)       │        256 │   Y   │ ## │ (BatchNormalization)        │                       │            │       │ ## ├─────────────────────────────┼───────────────────────┼────────────┼───────┤ ## │ re_lu_2 (ReLU)              │ (None, 500, 64)       │          0 │   -   │ ## ├─────────────────────────────┼───────────────────────┼────────────┼───────┤ ## │ conv1d_1 (Conv1D)           │ (None, 500, 64)       │     12,352 │   Y   │ ## ├─────────────────────────────┼───────────────────────┼────────────┼───────┤ ## │ batch_normalization_1       │ (None, 500, 64)       │        256 │   Y   │ ## │ (BatchNormalization)        │                       │            │       │ ## ├─────────────────────────────┼───────────────────────┼────────────┼───────┤ ## │ re_lu_1 (ReLU)              │ (None, 500, 64)       │          0 │   -   │ ## ├─────────────────────────────┼───────────────────────┼────────────┼───────┤ ## │ conv1d (Conv1D)             │ (None, 500, 64)       │     12,352 │   Y   │ ## ├─────────────────────────────┼───────────────────────┼────────────┼───────┤ ## │ batch_normalization         │ (None, 500, 64)       │        256 │   Y   │ ## │ (BatchNormalization)        │                       │            │       │ ## ├─────────────────────────────┼───────────────────────┼────────────┼───────┤ ## │ re_lu (ReLU)                │ (None, 500, 64)       │          0 │   -   │ ## ├─────────────────────────────┼───────────────────────┼────────────┼───────┤ ## │ global_average_pooling1d    │ (None, 64)            │          0 │   -   │ ## │ (GlobalAveragePooling1D)    │                       │            │       │ ## ├─────────────────────────────┼───────────────────────┼────────────┼───────┤ ## │ dense (Dense)               │ (None, 2)             │        130 │   Y   │ ## └─────────────────────────────┴───────────────────────┴────────────┴───────┘ ##  Total params: 25,858 (101.01 KB) ##  Trainable params: 25,474 (99.51 KB) ##  Non-trainable params: 384 (1.50 KB) plot(model, show_shapes = TRUE)"},{"path":"https://keras.posit.co/articles/examples/timeseries/timeseries_classification_from_scratch.html","id":"train-the-model","dir":"Articles > Examples > 
…
   layer_conv_2d(32, 3, activation = \"relu\") |>   layer_max_pooling_2d(3) |>   layer_conv_2d(32, 3, activation = \"relu\") |>   layer_conv_2d(16, 3, activation = \"relu\") |>   layer_global_max_pooling_2d()  encoder <- keras_model(encoder_input, encoder_output, name=\"encoder\") summary(encoder) ## Model: \"encoder\" ## ┏━━━━━━━━━━━━━━━━━━━━━━━━━━━━━━━━━┳━━━━━━━━━━━━━━━━━━━━━━━━┳━━━━━━━━━━━━━━━┓ ## ┃ Layer (type)                    ┃ Output Shape           ┃       Param # ┃ ## ┡━━━━━━━━━━━━━━━━━━━━━━━━━━━━━━━━━╇━━━━━━━━━━━━━━━━━━━━━━━━╇━━━━━━━━━━━━━━━┩ ## │ img (InputLayer)                │ (None, 28, 28, 1)      │             0 │ ## ├─────────────────────────────────┼────────────────────────┼───────────────┤ ## │ conv2d_3 (Conv2D)               │ (None, 26, 26, 16)     │           160 │ ## ├─────────────────────────────────┼────────────────────────┼───────────────┤ ## │ conv2d_2 (Conv2D)               │ (None, 24, 24, 32)     │         4,640 │ ## ├─────────────────────────────────┼────────────────────────┼───────────────┤ ## │ max_pooling2d (MaxPooling2D)    │ (None, 8, 8, 32)       │             0 │ ## ├─────────────────────────────────┼────────────────────────┼───────────────┤ ## │ conv2d_1 (Conv2D)               │ (None, 6, 6, 32)       │         9,248 │ ## ├─────────────────────────────────┼────────────────────────┼───────────────┤ ## │ conv2d (Conv2D)                 │ (None, 4, 4, 16)       │         4,624 │ ## ├─────────────────────────────────┼────────────────────────┼───────────────┤ ## │ global_max_pooling2d            │ (None, 16)             │             0 │ ## │ (GlobalMaxPooling2D)            │                        │               │ ## └─────────────────────────────────┴────────────────────────┴───────────────┘ ##  Total params: 18,672 (72.94 KB) ##  Trainable params: 18,672 (72.94 KB) ##  Non-trainable params: 0 (0.00 B) decoder_output <- encoder_output |>   layer_reshape(c(4, 4, 1)) |>   layer_conv_2d_transpose(16, 3, activation = \"relu\") |
…
conv_2d_transpose(32, 3, activation = \"relu\") |>   layer_upsampling_2d(3) |>   layer_conv_2d_transpose(16, 3, activation = \"relu\") |>   layer_conv_2d_transpose(1, 3, activation = \"relu\")  autoencoder <- keras_model(encoder_input, decoder_output, name=\"autoencoder\") summary(autoencoder) ## Model: \"autoencoder\" ## ┏━━━━━━━━━━━━━━━━━━━━━━━━━━━━━━━━━┳━━━━━━━━━━━━━━━━━━━━━━━━┳━━━━━━━━━━━━━━━┓ ## ┃ Layer (type)                    ┃ Output Shape           ┃       Param # ┃ ## ┡━━━━━━━━━━━━━━━━━━━━━━━━━━━━━━━━━╇━━━━━━━━━━━━━━━━━━━━━━━━╇━━━━━━━━━━━━━━━┩ ## │ img (InputLayer)                │ (None, 28, 28, 1)      │             0 │ ## ├─────────────────────────────────┼────────────────────────┼───────────────┤ ## │ conv2d_3 (Conv2D)               │ (None, 26, 26, 16)     │           160 │ ## ├─────────────────────────────────┼────────────────────────┼───────────────┤ ## │ conv2d_2 (Conv2D)               │ (None, 24, 24, 32)     │         4,640 │ ## ├─────────────────────────────────┼────────────────────────┼───────────────┤ ## │ max_pooling2d (MaxPooling2D)    │ (None, 8, 8, 32)       │             0 │ ## ├─────────────────────────────────┼────────────────────────┼───────────────┤ ## │ conv2d_1 (Conv2D)               │ (None, 6, 6, 32)       │         9,248 │ ## ├─────────────────────────────────┼────────────────────────┼───────────────┤ ## │ conv2d (Conv2D)                 │ (None, 4, 4, 16)       │         4,624 │ ## ├─────────────────────────────────┼────────────────────────┼───────────────┤ ## │ global_max_pooling2d            │ (None, 16)             │             0 │ ## │ (GlobalMaxPooling2D)            │                        │               │ ## ├─────────────────────────────────┼────────────────────────┼───────────────┤ ## │ reshape (Reshape)               │ (None, 4, 4, 1)        │             0 │ ## ├─────────────────────────────────┼────────────────────────┼───────────────┤ ## │ conv2d_transpose_3              │ (None, 6, 6, 16)       │           160 │ ## │ (Conv2DTranspose)               │                        │               │ ## ├─────────────────────────────────┼────────────────────────┼───────────────┤ ## │ conv2d_transpose_2              │ (None, 8, 8, 32)       │         4,640 │ ## │ (Conv2DTranspose)               │                        │               │ ## ├─────────────────────────────────┼────────────────────────┼───────────────┤ ## │ up_sampling2d (UpSampling2D)    │ (None, 24, 24, 32)     │             0 │ ## ├─────────────────────────────────┼────────────────────────┼───────────────┤ ## │ conv2d_transpose_1              │ (None, 26, 26, 16)     │         4,624 │ ## │ (Conv2DTranspose)               │                        │               │ ## ├─────────────────────────────────┼────────────────────────┼───────────────┤ ## │ conv2d_transpose                │ (None, 28, 28, 1)      │           145 │ ## │ (Conv2DTranspose)               │                        │               │ ## └─────────────────────────────────┴────────────────────────┴───────────────┘ ##  Total params: 28,241 (110.32 KB) ##  Trainable params: 28,241 (110.32 KB) ##  Non-trainable params: 0 (0.00 B)"},{"path":"https://keras.posit.co/articles/functional_api.html","id":"all-models-are-callable-just-like-layers","dir":"Art
…
") |>   layer_conv_2d_transpose(32, 3, activation = \"relu\") |>   layer_upsampling_2d(3) |>   layer_conv_2d_transpose(16, 3, activation = \"relu\") |>   layer_conv_2d_transpose(1, 3, activation = \"relu\")  decoder <- keras_model(decoder_input, decoder_output, name = \"decoder\") summary(decoder) ## Model: \"decoder\" ## ┏━━━━━━━━━━━━━━━━━━━━━━━━━━━━━━━━━┳━━━━━━━━━━━━━━━━━━━━━━━━┳━━━━━━━━━━━━━━━┓ ## ┃ Layer (type)                    ┃ Output Shape           ┃       Param # ┃ ## ┡━━━━━━━━━━━━━━━━━━━━━━━━━━━━━━━━━╇━━━━━━━━━━━━━━━━━━━━━━━━╇━━━━━━━━━━━━━━━┩ ## │ encoded_img (InputLayer)        │ (None, 16)             │             0 │ ## ├─────────────────────────────────┼────────────────────────┼───────────────┤ ## │ reshape_1 (Reshape)             │ (None, 4, 4, 1)        │             0 │ ## ├─────────────────────────────────┼────────────────────────┼───────────────┤ ## │ conv2d_transpose_7              │ (None, 6, 6, 16)       │           160 │ ## │ (Conv2DTranspose)               │                        │               │ ## ├─────────────────────────────────┼────────────────────────┼───────────────┤ ## │ conv2d_transpose_6              │ (None, 8, 8, 32)       │         4,640 │ ## │ (Conv2DTranspose)               │                        │               │ ## ├─────────────────────────────────┼────────────────────────┼───────────────┤ ## │ up_sampling2d_1 (UpSampling2D)  │ (None, 24, 24, 32)     │             0 │ ## ├─────────────────────────────────┼────────────────────────┼───────────────┤ ## │ conv2d_transpose_5              │ (None, 26, 26, 16)     │         4,624 │ ## │ (Conv2DTranspose)               │                        │               │ ## ├─────────────────────────────────┼────────────────────────┼───────────────┤ ## │ conv2d_transpose_4              │ (None, 28, 28, 1)      │           145 │ ## │ (Conv2DTranspose)               │                        │               │ ## └─────────────────────────────────┴────────────────────────┴───────────────┘ ##  Total params: 9,569 (37.38 KB) ##  Trainable params: 9,569 (37.38 KB) ##  Non-trainable params: 0 (0.00 B) autoencoder_input <- keras_input(shape = c(28, 28, 1), name = \"img\") encoded_img <- encoder(autoencoder_input) decoded_img <- decoder(encoded_img) autoencoder <- keras_model(autoencoder_input, decoded_img,                            name = \"autoencoder\") summary(autoencoder) ## Model: \"autoencoder\" ## ┏━━━━━━━━━━━━━━━━━━━━━━━━━━━━━━━━━┳━━━━━━━━━━━━━━━━━━━━━━━━┳━━━━━━━━━━━━━━━┓ ## ┃ Layer (type)                    ┃ Output Shape           ┃       Param # ┃ ## ┡━━━━━━━━━━━━━━━━━━━━━━━━━━━━━━━━━╇━━━━━━━━━━━━━━━━━━━━━━━━╇━━━━━━━━━━━━━━━┩ ## │ img (InputLayer)                │ (None, 28, 28, 1)      │             0 │ ## ├─────────────────────────────────┼────────────────────────┼───────────────┤ ## │ encoder (Functional)            │ (None, 16)             │        18,672 │ ## ├─────────────────────────────────┼────────────────────────┼───────────────┤ ## │ decoder (Functional)            │ (None, 28, 28, 1)      │         9,569 │ ## └─────────────────────────────────┴────────────────────────┴───────────────┘ ##  Total params: 28,241 (110.32 KB) ##  Trainable params: 28,241 (110.32 KB) ##  Non-trainable params: 0 (0.00 B) get_model <- function() {   inputs <- keras_input(shape = 128)   outputs <- inputs |> layer_dense(1)   keras_model(inputs, outputs) }  model1 <- get_model() model2 <- get_model() model3 <- get_model()  
…
layer_add(block_2_output)  outputs <- block_3_output |>   layer_conv_2d(64, 3, activation = \"relu\") |>   layer_global_average_pooling_2d() |>   layer_dense(256, activation = \"relu\") |>   layer_dropout(0.5) |>   layer_dense(10)  model <- keras_model(inputs, outputs, name = \"toy_resnet\") summary(model) ## Model: \"toy_resnet\" ## ┏━━━━━━━━━━━━━━━━━━━━━┳━━━━━━━━━━━━━━━━━━━┳━━━━━━━━━━━━┳━━━━━━━━━━━━━━━━━━━┓ ## ┃ Layer (type)        ┃ Output Shape      ┃    Param # ┃ Connected to      ┃ ## ┡━━━━━━━━━━━━━━━━━━━━━╇━━━━━━━━━━━━━━━━━━━╇━━━━━━━━━━━━╇━━━━━━━━━━━━━━━━━━━┩ ## │ img (InputLayer)    │ (None, 32, 32, 3) │          0 │ -                 │ ## ├─────────────────────┼───────────────────┼────────────┼───────────────────┤ ## │ conv2d_9 (Conv2D)   │ (None, 30, 30,    │        896 │ img[0][0]         │ ## │                     │ 32)               │            │                   │ ## ├─────────────────────┼───────────────────┼────────────┼───────────────────┤ ## │ conv2d_8 (Conv2D)   │ (None, 28, 28,    │     18,496 │ conv2d_9[0][0]    │ ## │                     │ 64)               │            │                   │ ## ├─────────────────────┼───────────────────┼────────────┼───────────────────┤ ## │ max_pooling2d_2     │ (None, 9, 9, 64)  │          0 │ conv2d_8[0][0]    │ ## │ (MaxPooling2D)      │                   │            │                   │ ## ├─────────────────────┼───────────────────┼────────────┼───────────────────┤ ## │ conv2d_11 (Conv2D)  │ (None, 9, 9, 32)  │     18,464 │ max_pooling2d_2[… │ ## ├─────────────────────┼───────────────────┼────────────┼───────────────────┤ ## │ conv2d_10 (Conv2D)  │ (None, 9, 9, 64)  │     18,496 │ conv2d_11[0][0]   │ ## ├─────────────────────┼───────────────────┼────────────┼───────────────────┤ ## │ add (Add)           │ (None, 9, 9, 64)  │          0 │ conv2d_10[0][0],  │ ## │                     │                   │            │ max_pooling2d_2[… │ ## ├─────────────────────┼───────────────────┼────────────┼───────────────────┤ ## │ conv2d_13 (Conv2D)  │ (None, 9, 9, 64)  │     36,928 │ add[0][0]         │ ## ├─────────────────────┼───────────────────┼────────────┼───────────────────┤ ## │ conv2d_12 (Conv2D)  │ (None, 9, 9, 64)  │     36,928 │ conv2d_13[0][0]   │ ## ├─────────────────────┼───────────────────┼────────────┼───────────────────┤ ## │ add_1 (Add)         │ (None, 9, 9, 64)  │          0 │ conv2d_12[0][0],  │ ## │                     │                   │            │ add[0][0]         │ ## ├─────────────────────┼───────────────────┼────────────┼───────────────────┤ ## │ conv2d_14 (Conv2D)  │ (None, 7, 7, 64)  │     36,928 │ add_1[0][0]       │ ## ├─────────────────────┼───────────────────┼────────────┼───────────────────┤ ## │ global_average_poo… │ (None, 64)        │          0 │ conv2d_14[0][0]   │ ## │ (GlobalAveragePool… │                   │            │                   │ ## ├─────────────────────┼───────────────────┼────────────┼───────────────────┤ ## │ dense_7 (Dense)     │ (None, 256)       │     16,640 │ global_average_p… │ ## ├─────────────────────┼───────────────────┼────────────┼───────────────────┤ ## │ dropout (Dropout)   │ (None, 256)       │          0 │ dense_7[0][0]     │ ## ├─────────────────────┼───────────────────┼────────────┼───────────────────┤ ## │ dense_6 (Dense)     │ (None, 10)        │      2,570 │ dropout[0][0]     │ ## └─────────────────────┴───────────────────┴────────────┴───────────────────┘ ##  Total params: 186,346 (727.91 KB) ##  Trainable params: 186,346 (727.91 KB) ##  Non-trainable params: 0 (0.00 B) plot(model, show_shapes = TRUE) c(c(x_train, y_train), c(x_test, y_test)) %<-% dataset_cifar10()  x_train <- x_train / 255.0 x_test <- x_test / 255.0  model |> compile(   optimizer
…
e":"model <- keras_model_sequential(input_shape = c(784)) model |>   layer_dense(units = 256, activation = 'relu') |>   layer_dropout(rate = 0.4) |>   layer_dense(units = 128, activation = 'relu') |>   layer_dropout(rate = 0.3) |>   layer_dense(units = 10, activation = 'softmax') summary(model) ## Model: \"sequential\" ## ┏━━━━━━━━━━━━━━━━━━━━━━━━━━━━━━━━━┳━━━━━━━━━━━━━━━━━━━━━━━━┳━━━━━━━━━━━━━━━┓ ## ┃ Layer (type)                    ┃ Output Shape           ┃       Param # ┃ ## ┡━━━━━━━━━━━━━━━━━━━━━━━━━━━━━━━━━╇━━━━━━━━━━━━━━━━━━━━━━━━╇━━━━━━━━━━━━━━━┩ ## │ dense_2 (Dense)                 │ (None, 256)            │       200,960 │ ## ├─────────────────────────────────┼────────────────────────┼───────────────┤ ## │ dropout_1 (Dropout)             │ (None, 256)            │             0 │ ## ├─────────────────────────────────┼────────────────────────┼───────────────┤ ## │ dense_1 (Dense)                 │ (None, 128)            │        32,896 │ ## ├─────────────────────────────────┼────────────────────────┼───────────────┤ ## │ dropout (Dropout)               │ (None, 128)            │             0 │ ## ├─────────────────────────────────┼────────────────────────┼───────────────┤ ## │ dense (Dense)                   │ (None, 10)             │         1,290 │ ## └─────────────────────────────────┴────────────────────────┴───────────────┘ ##  Total params: 235,146 (918.54 KB) ##  Trainable params: 235,146 (918.54 KB) ##  Non-trainable params: 0 (0.00 B) plot(model) model |> compile(   loss = 'categorical_crossentropy',   optimizer = optimizer_rmsprop(),   metrics = c('accuracy') )"},{"path":"https://keras.posit.co/articles/getting_started.html","id":
…
nv_2d(filters = 128, kernel_size = c(3, 3), activation = \"relu\") |>   layer_conv_2d(filters = 128, kernel_size = c(3, 3), activation = \"relu\") |>   layer_global_average_pooling_2d() |>   layer_dropout(rate = 0.5) |>   layer_dense(units = num_classes, activation = \"softmax\") summary(model) ## Model: \"sequential\" ## ┏━━━━━━━━━━━━━━━━━━━━━━━━━━━━━━━━━┳━━━━━━━━━━━━━━━━━━━━━━━━┳━━━━━━━━━━━━━━━┓ ## ┃ Layer (type)                    ┃ Output Shape           ┃       Param # ┃ ## ┡━━━━━━━━━━━━━━━━━━━━━━━━━━━━━━━━━╇━━━━━━━━━━━━━━━━━━━━━━━━╇━━━━━━━━━━━━━━━┩ ## │ conv2d_3 (Conv2D)               │ (None, 26, 26, 64)     │           640 │ ## ├─────────────────────────────────┼────────────────────────┼───────────────┤ ## │ conv2d_2 (Conv2D)               │ (None, 24, 24, 64)     │        36,928 │ ## ├─────────────────────────────────┼────────────────────────┼───────────────┤ ## │ max_pooling2d (MaxPooling2D)    │ (None, 12, 12, 64)     │             0 │ ## ├─────────────────────────────────┼────────────────────────┼───────────────┤ ## │ conv2d_1 (Conv2D)               │ (None, 10, 10, 128)    │        73,856 │ ## ├─────────────────────────────────┼────────────────────────┼───────────────┤ ## │ conv2d (Conv2D)                 │ (None, 8, 8, 128)      │       147,584 │ ## ├─────────────────────────────────┼────────────────────────┼───────────────┤ ## │ global_average_pooling2d        │ (None, 128)            │             0 │ ## │ (GlobalAveragePooling2D)        │                        │               │ ## ├─────────────────────────────────┼────────────────────────┼───────────────┤ ## │ dropout (Dropout)               │ (None, 128)            │             0 │ ## ├─────────────────────────────────┼────────────────────────┼───────────────┤ ## │ dense (Dense)                   │ (None, 10)             │         1,290 │ ## └─────────────────────────────────┴────────────────────────┴───────────────┘ ##  Total params: 260,298 (1016.79 KB) ##  Trainable params: 260,298 (1016.79 KB) ##  Non-trainable params: 0 (0.00 B) model |> compile(   optimizer = \"adam\",   loss = \"sparse_categorical_crossentropy\",   metrics = list(     metric_sparse_categorical_accuracy(name = \"acc\")   ) ) batch_size <- 128 epochs <- 10 
…
ernel_size = 3, activation = \"relu\") |>   layer_max_pooling_2d(pool_size = 3) |>   layer_conv_2d(filters = 32, kernel_size = 3, activation = \"relu\") |>   layer_conv_2d(filters = 32, kernel_size = 3, activation = \"relu\") |>   layer_max_pooling_2d(pool_size = 2)  # And now? summary(model) ## Model: \"sequential_6\" ## ┏━━━━━━━━━━━━━━━━━━━━━━━━━━━━━━━━━┳━━━━━━━━━━━━━━━━━━━━━━━━┳━━━━━━━━━━━━━━━┓ ## ┃ Layer (type)                    ┃ Output Shape           ┃       Param # ┃ ## ┡━━━━━━━━━━━━━━━━━━━━━━━━━━━━━━━━━╇━━━━━━━━━━━━━━━━━━━━━━━━╇━━━━━━━━━━━━━━━┩ ## │ conv2d_1 (Conv2D)               │ (None, 123, 123, 32)   │         2,432 │ ## ├─────────────────────────────────┼────────────────────────┼───────────────┤ ## │ conv2d (Conv2D)                 │ (None, 121, 121, 32)   │         9,248 │ ## ├─────────────────────────────────┼────────────────────────┼───────────────┤ ## │ max_pooling2d (MaxPooling2D)    │ (None, 40, 40, 32)     │             0 │ ## ├─────────────────────────────────┼────────────────────────┼───────────────┤ ## │ conv2d_5 (Conv2D)               │ (None, 38, 38, 32)     │         9,248 │ ## ├─────────────────────────────────┼────────────────────────┼───────────────┤ ## │ conv2d_4 (Conv2D)               │ (None, 36, 36, 32)     │         9,248 │ ## ├─────────────────────────────────┼────────────────────────┼───────────────┤ ## │ max_pooling2d_2 (MaxPooling2D)  │ (None, 12, 12, 32)     │             0 │ ## ├─────────────────────────────────┼────────────────────────┼───────────────┤ ## │ conv2d_3 (Conv2D)               │ (None, 10, 10, 32)     │         9,248 │ ## ├─────────────────────────────────┼────────────────────────┼───────────────┤ ## │ conv2d_2 (Conv2D)               │ (None, 8, 8, 32)       │         9,248 │ ## ├─────────────────────────────────┼────────────────────────┼───────────────┤ ## │ max_pooling2d_1 (MaxPooling2D)  │ (None, 4, 4, 32)       │             0 │ ## └─────────────────────────────────┴────────────────────────┴───────────────┘ ##  Total params: 48,672 (190.12 KB) ##  Trainable params: 48,672 (190.12 KB) ##  Non-trainable params: 0 (0.00 B) # Now that we have 4x4 feature maps, time to apply global max pooling. model |>   layer_global_max_pooling_2d()  # Finally, we add a classification layer. model |>   layer_dense(units = 10, activation =
…
or fine-tuning, so we make sure that the # base_model is running in inference mode here. outputs <- x |>   base_model(training = FALSE) |>   layer_global_average_pooling_2d() |>   layer_dropout(0.2) |>   layer_dense(1)  model <- keras_model(inputs, outputs)  summary(model, show_trainable = TRUE) ## Model: \"functional_10\" ## ┏━━━━━━━━━━━━━━━━━━━━━━━━━━━━━┳━━━━━━━━━━━━━━━━━━━━━━━┳━━━━━━━━━━━━┳━━━━━━━┓ ## ┃ Layer (type)                ┃ Output Shape          ┃    Param # ┃ Trai… ┃ ## ┡━━━━━━━━━━━━━━━━━━━━━━━━━━━━━╇━━━━━━━━━━━━━━━━━━━━━━━╇━━━━━━━━━━━━╇━━━━━━━┩ ## │ input_layer_7 (InputLayer)  │ (None, 150, 150, 3)   │          0 │   -   │ ## ├─────────────────────────────┼───────────────────────┼────────────┼───────┤ ## │ rescaling (Rescaling)       │ (None, 150, 150, 3)   │          0 │   -   │ ## ├─────────────────────────────┼───────────────────────┼────────────┼───────┤ ## │ xception (Functional)       │ (None, 5, 5, 2048)    │ 20,861,480 │   N   │ ## ├─────────────────────────────┼───────────────────────┼────────────┼───────┤ ## │ global_average_pooling2d_1  │ (None, 2048)          │          0 │   -   │ ## │ (GlobalAveragePooling2D)    │                       │            │       │ ## ├─────────────────────────────┼───────────────────────┼────────────┼───────┤ ## │ dropout (Dropout)           │ (None, 2048)          │          0 │   -   │ ## ├─────────────────────────────┼───────────────────────┼────────────┼───────┤ ## │ dense_8 (Dense)             │ (None, 1)             │      2,049 │   Y   │ ## └─────────────────────────────┴───────────────────────┴────────────┴───────┘ ##  Total params: 20,863,529 (79.59 MB) ##  Trainable params: 2,049 (8.00 KB) ##  Non-trainable params: 20,861,480 (79.58 MB)"},{"path":"https://keras.posit.co/articles/transfer_learning.html","id":"train-the-top-layer","dir":"Articles","previous_headings":"","what":"Train the top layer","title":"Transfer le
…
ation_leaky_relu(negative_slope = 0.2) |>   layer_conv_2d(filters = 128, kernel_size = c(3, 3),                 strides = c(2, 2), padding = \"same\") |>   layer_activation_leaky_relu(negative_slope = 0.2) |>   layer_global_max_pooling_2d() |>   layer_dense(units = 1)  summary(discriminator) ## Model: \"discriminator\" ## ┏━━━━━━━━━━━━━━━━━━━━━━━━━━━━━━━━━┳━━━━━━━━━━━━━━━━━━━━━━━━┳━━━━━━━━━━━━━━━┓ ## ┃ Layer (type)                    ┃ Output Shape           ┃       Param # ┃ ## ┡━━━━━━━━━━━━━━━━━━━━━━━━━━━━━━━━━╇━━━━━━━━━━━━━━━━━━━━━━━━╇━━━━━━━━━━━━━━━┩ ## │ conv2d_1 (Conv2D)               │ (None, 14, 14, 64)     │           640 │ ## ├─────────────────────────────────┼────────────────────────┼───────────────┤ ## │ leaky_re_lu_1 (LeakyReLU)       │ (None, 14, 14, 64)     │             0 │ ## ├─────────────────────────────────┼────────────────────────┼───────────────┤ ## │ conv2d (Conv2D)                 │ (None, 7, 7, 128)      │        73,856 │ ## ├─────────────────────────────────┼────────────────────────┼───────────────┤ ## │ leaky_re_lu (LeakyReLU)         │ (None, 7, 7, 128)      │             0 │ ## ├─────────────────────────────────┼────────────────────────┼───────────────┤ ## │ global_max_pooling2d            │ (None, 128)            │             0 │ ## │ (GlobalMaxPooling2D)            │                        │               │ ## ├─────────────────────────────────┼────────────────────────┼───────────────┤ ## │ dense_6 (Dense)                 │ (None, 1)              │           129 │ ## └─────────────────────────────────┴────────────────────────┴───────────────┘ ##  Total params: 74,625 (291.50 KB) ##  Trainable params: 74,625 (291.50 KB) ##  Non-trainable params: 0 (0.00 B) latent_dim <- 128L  generator <-   keras_model_sequential(name = \"generator\",                          input_shape = latent_dim) |>   layer_dense(7 * 7 * 128) |>   layer_activation_leaky_relu(negative
…
e(filters = 128, kernel_size = c(4, 4),                           strides = c(2, 2), padding = \"same\") |>   layer_activation_leaky_relu(negative_slope = 0.2) |>   layer_conv_2d(filters = 1, kernel_size = c(7, 7), padding = \"same\",                 activation = \"sigmoid\")  summary(generator) ## Model: \"generator\" ## ┏━━━━━━━━━━━━━━━━━━━━━━━━━━━━━━━━━┳━━━━━━━━━━━━━━━━━━━━━━━━┳━━━━━━━━━━━━━━━┓ ## ┃ Layer (type)                    ┃ Output Shape           ┃       Param # ┃ ## ┡━━━━━━━━━━━━━━━━━━━━━━━━━━━━━━━━━╇━━━━━━━━━━━━━━━━━━━━━━━━╇━━━━━━━━━━━━━━━┩ ## │ dense_7 (Dense)                 │ (None, 6272)           │       809,088 │ ## ├─────────────────────────────────┼────────────────────────┼───────────────┤ ## │ leaky_re_lu_4 (LeakyReLU)       │ (None, 6272)           │             0 │ ## ├─────────────────────────────────┼────────────────────────┼───────────────┤ ## │ reshape (Reshape)               │ (None, 7, 7, 128)      │             0 │ ## ├─────────────────────────────────┼────────────────────────┼───────────────┤ ## │ conv2d_transpose_1              │ (None, 14, 14, 128)    │       262,272 │ ## │ (Conv2DTranspose)               │                        │               │ ## ├─────────────────────────────────┼────────────────────────┼───────────────┤ ## │ leaky_re_lu_3 (LeakyReLU)       │ (None, 14, 14, 128)    │             0 │ ## ├─────────────────────────────────┼────────────────────────┼───────────────┤ ## │ conv2d_transpose                │ (None, 28, 28, 128)    │       262,272 │ ## │ (Conv2DTranspose)               │                        │               │ ## ├─────────────────────────────────┼────────────────────────┼───────────────┤ ## │ leaky_re_lu_2 (LeakyReLU)       │ (None, 28, 28, 128)    │             0 │ ## ├─────────────────────────────────┼────────────────────────┼───────────────┤ ## │ conv2d_2 (Conv2D)               │ (None, 28, 28, 1)      │         6,273 │ ## └─────────────────────────────────┴────────────────────────┴───────────────┘ ##  Total params: 1,339,905 (5.11 MB) ##  Trainable params: 1,339,905 (5.11 MB) ##  Non-trainable params: 0 (0.00 B) # Instantiate one optimizer for the discriminator and another for the generator. d_optimizer <- optimizer_adam(learning_rate = 0.0003) g_optimizer <- optimizer_adam(learning_rate = 0.0004)  # Instanti
…
itle":"Freeze and unfreeze weights — freeze_weights","text":"","code":"# instantiate a VGG16 model conv_base <- application_vgg16(   weights = \"imagenet\",   include_top = FALSE,   input_shape = c(150, 150, 3) )  # freeze it's weights freeze_weights(conv_base)  # Note the \"Trainable\" column conv_base ## Model: \"vgg16\" ## +-----------------------------+-----------------------+------------+-------+ ## | Layer (type)                | Output Shape          |    Param # | Trai… | ## +=============================+=======================+============+=======+ ## | input_layer (InputLayer)    | (None, 150, 150, 3)   |          0 |   -   | ## +-----------------------------+-----------------------+------------+-------+ ## | block1_conv1 (Conv2D)       | (None, 150, 150, 64)  |      1,792 |   N   | ## +-----------------------------+-----------------------+------------+-------+ ## | block1_conv2 (Conv2D)       | (None, 150, 150, 64)  |     36,928 |   N   | ## +-----------------------------+-----------------------+------------+-------+ ## | block1_pool (MaxPooling2D)  | (None, 75, 75, 64)    |          0 |   -   | ## +-----------------------------+-----------------------+------------+-------+ ## | block2_conv1 (Conv2D)       | (None, 75, 75, 128)   |     73,856 |   N   | ## +-----------------------------+-----------------------+------------+-------+ ## | block2_conv2 (Conv2D)       | (None, 75, 75, 128)   |    147,584 |   N   | ## +-----------------------------+-----------------------+------------+-------+ ## | block2_pool (MaxPooling2D)  | (None, 37, 37, 128)   |          0 |   -   | ## +-----------------------------+-----------------------+------------+-------+ ## | block3_conv1 (Conv2D)       | (None, 37, 37, 256)   |    295,168 |   N   | ## +-----------------------------+-----------------------+------------+-------+ ## | block3_conv2 (Conv2D)       | (None, 37, 37, 256)   |    590,080 |   N   | ## +-----------------------------+-----------------------+------------+-------+ ## | block3_conv3 (Conv2D)       | (None, 37, 37, 256)   |    590,080 |   N   | ## +-----------------------------+-----------------------+------------+-------+ ## | block3_pool (MaxPooling2D)  | (None, 18, 18, 256)   |          0 |   -   | ## +-----------------------------+-----------------------+------------+-------+ ## | block4_conv1 (Conv2D)       | (None, 18, 18, 512)   |  1,180,160 |   N   | ## +-----------------------------+-----------------------+------------+-------+ ## | block4_conv2 (Conv2D)       | (None, 18, 18, 512)   |  2,359,808 |   N   | ## +-----------------------------+-----------------------+------------+-------+ ## | block4_conv3 (Conv2D)       | (None, 18, 18, 512)   |  2,359,808 |   N   | ## +-----------------------------+-----------------------+------------+-------+ ## | block4_pool (MaxPooling2D)  | (None, 9, 9, 512)     |          0 |   -   | ## +-----------------------------+-----------------------+------------+-------+ ## | block5_conv1 (Conv2D)       | (None, 9, 9, 512)     |  2,359,808 |   N   | ## +-----------------------------+-----------------------+------------+-------+ ## | block5_conv2 (Conv2D)       | (None, 9, 9, 512)     |  2,359,808 |   N   | ## +-----------------------------+-----------------------+------------+-------+ ## | block5_conv3 (Conv2D)       | (None, 9, 9, 512)     |  2,359,808 |   N   | ## +-----------------------------+-----------------------+------------+-------+ ## | block5_pool (MaxPooling2D)  | (None, 4, 4, 512)     |          0 |   -   | ## +-----------------------------+-----------------------+------------+-------+ ##  Total params: 14,714,688 (56.13 MB) ##  Trainable params: 0 (0.00 B) ##  Non-trainable params: 14,714,688 (56.13 MB) # create a composite model that includes the base + more layers model <- keras_model_sequential(input_batch_shape = shape(conv_base$input)) |>   conv_base() |>   layer_flatten() |>   layer_dense(units = 256, activation = \"relu\") |>   layer_dense(units = 1, activation = \"sigmoid\")  # compile model |> compile(   loss = \"binary_crossentropy\",   optimizer = optimizer_rmsprop(learning_rate = 2e-5),   metrics = c(\"accuracy\") )  model ## Model: \"sequential\" ## +-----------------------------+-----------------------+------------+-------+ ## | Layer (type)                | Output Shape          |    Param # | Trai… | ## +=============================+=======================+============+=======+ ## | vgg16 (Functional)          | (None, 4, 4, 512)     | 14,714,688 |   N   | ## +-----------------------------+-----------------------+------------+-------+ ## | flatten (Flatten)           | (None, 8192)          |          0 |   -   | ## +-----------------------------+-----------------------+------------+-------+ ## | dense_1 (Dense)             | (None, 256)           |  2,097,408 |   Y   | ## +-----------------------------+-----------------------+------------+-------+ ## | dense (Dense)               | (None, 1)             |        257 |   Y   | ## +-----------------------------+-----------------------+------------+-------+ ##  Total params: 16,812,353 (64.13 MB) ##  Trainable params: 2,097,665 (8.00 MB) ##  Non-trainable params: 14,714,688 (56.13 MB) print(model, expand_nested = TRUE) ## Model: \"sequential\" ## +-----------------------------+-----------------------+------------+-------+ ## | Layer (type)                | Output Shape          |    Param # | Trai… | ## +=============================+=======================+============+=======+ ## | vgg16 (Functional)          | (None, 4, 4, 512)     | 14,714,688 |   N   | ## +-----------------------------+-----------------------+------------+-------+ ## |    > input_layer            | (None, 150, 150, 3)   |          0 |   -   | ## | (InputLayer)                |                       |            |       | ## +-----------------------------+-----------------------+------------+-------+ ## |    > block1_conv1 (Conv2D)  | (None, 150, 150, 64)  |      1,792 |   N   | ## +-----------------------------+-----------------------+------------+-------+ ## |    > block1_conv2 (Conv2D)  | (None, 150, 150, 64)  |     36,928 |   N   | ## +-----------------------------+-----------------------+------------+-------+ ## |    > block1_pool            | (None, 75, 75, 64)    |          0 |   -   | ## | (MaxPooling2D)              |                       |            |       | ## +-----------------------------+-----------------------+------------+-------+ ## |    > block2_conv1 (Conv2D)  | (None, 75, 75, 128)   |     73,856 |   N   | ## +-----------------------------+-----------------------+------------+-------+ ## |    > block2_conv2 (Conv2D)  | (None, 75, 75, 128)   |    147,584 |   N   | ## +-----------------------------+-----------------------+------------+-------+ ## |    > block2_pool            | (None, 37, 37, 128)   |          0 |   -   | ## | (MaxPooling2D)              |                       |            |       | ## +-----------------------------+-----------------------+------------+-------+ ## |    > block3_conv1 (Conv2D)  | (None, 37, 37, 256)   |    295,168 |   N   | ## +-----------------------------+-----------------------+------------+-------+ ## |    > block3_conv2 (Conv2D)  | (None, 37, 37, 256)   |    590,080 |   N   | ## +-----------------------------+-----------------------+------------+-------+ ## |    > block3_conv3 (Conv2D)  | (None, 37, 37, 256)   |    590,080 |   N   | ## +-----------------------------+-----------------------+------------+-------+ ## |    > block3_pool            | (None, 18, 18, 256)   |          0 |   -   | ## | (MaxPooling2D)              |                       |            |       | ## +-----------------------------+-----------------------+------------+-------+ ## |    > block4_conv1 (Conv2D)  | (None, 18, 18, 512)   |  1,180,160 |   N   | ## +-----------------------------+-----------------------+------------+-------+ ## |    > block4_conv2 (Conv2D)  | (None, 18, 18, 512)   |  2,359,808 |   N   | ## +-----------------------------+-----------------------+------------+-------+ ## |    > block4_conv3 (Conv2D)  | (None, 18, 18, 512)   |  2,359,808 |   N   | ## +-----------------------------+-----------------------+------------+-------+ ## |    > block4_pool            | (None, 9, 9, 512)     |          0 |   -   | ## | (MaxPooling2D)              |                       |            |       | ## +-----------------------------+-----------------------+------------+-------+ ## |    > block5_conv1 (Conv2D)  | (None, 9, 9, 512)     |  2,359,808 |   N   | ## +-----------------------------+-----------------------+------------+-------+ ## |    > block5_conv2 (Conv2D)  | (None, 9, 9, 512)     |  2,359,808 |   N   | ## +-----------------------------+-----------------------+------------+-------+ ## |    > block5_conv3 (Conv2D)  | (None, 9, 9, 512)     |  2,359,808 |   N   | ## +-----------------------------+-----------------------+------------+-------+ ## |    > block5_pool            | (None, 4, 4, 512)     |          0 |   -   | ## | (MaxPooling2D)              |                       |            |       | ## +-----------------------------+-----------------------+------------+-------+ ## | flatten (Flatten)           | (None, 8192)          |          0 |   -   | ## +-----------------------------+-----------------------+------------+-------+ ## | dense_1 (Dense)             | (None, 256)           |  2,097,408 |   Y   | ## +-----------------------------+-----------------------+------------+-------+ ## | dense (Dense)               | (None, 1)             |        257 |   Y   | ## +-----------------------------+-----------------------+------------+-------+ ##  Total params: 16,812,353 (64.13 MB) ##  Trainable params: 2,097,665 (8.00 MB) ##  Non-trainable params: 14,714,688 (56.13 MB) # unfreeze weights from \"block5_conv1\" on unfreeze_weights(conv_base, from = \"block5_conv1\")  # compile again since we froze or unfroze weights model |> compile(   loss = \"binary_crossentropy\",   optimizer = optimizer_rmsprop(learning_rate = 2e-5),   metrics = c(\"accuracy\") )  conv_base ## Model: \"vgg16\" ## +-----------------------------+-----------------------+------------+-------+ ## | Layer (type)                | Output Shape          |    Param # | Trai… | ## +=============================+=======================+============+=======+ ## | input_layer (InputLayer)    | (None, 150, 150, 3)   |          0 |   -   | ## +-----------------------------+-----------------------+------------+-------+ ## | block1_conv1 (Conv2D)       | (None, 150, 150, 64)  |      1,792 |   N   | ## +-----------------------------+-----------------------+------------+-------+ ## | block1_conv2 (Conv2D)       | (None, 150, 150, 64)  |     36,928 |   N   | ## +-----------------------------+-----------------------+------------+-------+ ## | block1_pool (MaxPooling2D)  | (None, 75, 75, 64)    |          0 |   -   | ## +-----------------------------+-----------------------+------------+-------+ ## | block2_conv1 (Conv2D)       | (None, 75, 75, 128)   |     73,856 |   N   | ## +-----------------------------+-----------------------+------------+-------+ ## | block2_conv2 (Conv2D)       | (None, 75, 75, 128)   |    147,584 |   N   | ## +-----------------------------+-----------------------+------------+-------+ ## | block2_pool (MaxPooling2D)  | (None, 37, 37, 128)   |          0 |   -   | ## +-----------------------------+-----------------------+------------+-------+ ## | block3_conv1 (Conv2D)       | (None, 37, 37, 256)   |    295,168 |   N   | ## +-----------------------------+-----------------------+------------+-------+ ## | block3_conv2 (Conv2D)       | (None, 37, 37, 256)   |    590,080 |   N   | ## +-----------------------------+-----------------------+------------+-------+ ## | block3_conv3 (Conv2D)       | (None, 37, 37, 256)   |    590,080 |   N   | ## +-----------------------------+-----------------------+------------+-------+ ## | block3_pool (MaxPooling2D)  | (None, 18, 18, 256)   |          0 |   -   | ## +-----------------------------+-----------------------+------------+-------+ ## | block4_conv1 (Conv2D)       | (None, 18, 18, 512)   |  1,180,160 |   N   | ## +-----------------------------+-----------------------+------------+-------+ ## | block4_conv2 (Conv2D)       | (None, 18, 18, 512)   |  2,359,808 |   N   | ## +-----------------------------+-----------------------+------------+-------+ ## | block4_conv3 (Conv2D)       | (None, 18, 18, 512)   |  2,359,808 |   N   | ## +-----------------------------+-----------------------+------------+-------+ ## | block4_pool (MaxPooling2D)  | (None, 9, 9, 512)     |          0 |   -   | ## +-----------------------------+-----------------------+------------+-------+ ## | block5_conv1 (Conv2D)       | (None, 9, 9, 512)     |  2,359,808 |   Y   | ## +-----------------------------+-----------------------+------------+-------+ ## | block5_conv2 (Conv2D)       | (None, 9, 9, 512)     |  2,359,808 |   Y   | ## +-----------------------------+-----------------------+------------+-------+ ## | block5_conv3 (Conv2D)       | (None, 9, 9, 512)     |  2,359,808 |   Y   | ## +-----------------------------+-----------------------+------------+-------+ ## | block5_pool (MaxPooling2D)  | (None, 4, 4, 512)     |          0 |   -   | ## +-----------------------------+-----------------------+------------+-------+ ##  Total params: 14,714,688 (56.13 MB) ##  Trainable params: 7,079,424 (27.01 MB) ##  Non-trainable params: 7,635,264 (29.13 MB) print(model, expand_nested = TRUE) ## Model: \"sequential\" ## +-----------------------------+-----------------------+------------+-------+ ## | Layer (type)                | Output Shape          |    Param # | Trai… | ## +=============================+=======================+============+=======+ ## | vgg16 (Functional)          | (None, 4, 4, 512)     | 14,714,688 |   Y   | ## +-----------------------------+-----------------------+------------+-------+ ## |    > input_layer            | (None, 150, 150, 3)   |          0 |   -   | ## | (InputLayer)                |                       |            |       | ## +-----------------------------+-----------------------+------------+-------+ ## |    > block1_conv1 (Conv2D)  | (None, 150, 150, 64)  |      1,792 |   N   | ## +-----------------------------+-----------------------+------------+-------+ ## |    > block1_conv2 (Conv2D)  | (None, 150, 150, 64)  |     36,928 |   N   | ## +-----------------------------+-----------------------+------------+-------+ ## |    > block1_pool            | (None, 75, 75, 64)    |          0 |   -   | ## | (MaxPooling2D)              |                       |            |       | ## +-----------------------------+-----------------------+------------+-------+ ## |    > block2_conv1 (Conv2D)  | (None, 75, 75, 128)   |     73,856 |   N   | ## +-----------------------------+-----------------------+------------+-------+ ## |    > block2_conv2 (Conv2D)  | (None, 75, 75, 128)   |    147,584 |   N   | ## +-----------------------------+-----------------------+------------+-------+ ## |    > block2_pool            | (None, 37, 37, 128)   |          0 |   -   | ## | (MaxPooling2D)              |                       |            |       | ## +-----------------------------+-----------------------+------------+-------+ ## |    > block3_conv1 (Conv2D)  | (None, 37, 37, 256)   |    295,168 |   N   | ## +-----------------------------+-----------------------+------------+-------+ ## |    > block3_conv2 (Conv2D)  | (None, 37, 37, 256)   |    590,080 |   N   | ## +-----------------------------+-----------------------+------------+-------+ ## |    > block3_conv3 (Conv2D)  | (None, 37, 37, 256)   |    590,080 |   N   | ## +-----------------------------+-----------------------+------------+-------+ ## |    > block3_pool            | (None, 18, 18, 256)   |          0 |   -   | ## | (MaxPooling2D)              |                       |            |       | ## +-----------------------------+-----------------------+------------+-------+ ## |    > block4_conv1 (Conv2D)  | (None, 18, 18, 512)   |  1,180,160 |   N   | ## +-----------------------------+-----------------------+------------+-------+ ## |    > block4_conv2 (Conv2D)  | (None, 18, 18, 512)   |  2,359,808 |   N   | ## +-----------------------------+-----------------------+------------+-------+ ## |    > block4_conv3 (Conv2D)  | (None, 18, 18, 512)   |  2,359,808 |   N   | ## +-----------------------------+-----------------------+------------+-------+ ## |    > block4_pool            | (None, 9, 9, 512)     |          0 |   -   | ## | (MaxPooling2D)              |                       |            |       | ## +-----------------------------+-----------------------+------------+-------+ ## |    > block5_conv1 (Conv2D)  | (None, 9, 9, 512)     |  2,359,808 |   Y   | ## +-----------------------------+-----------------------+------------+-------+ ## |    > block5_conv2 (Conv2D)  | (None, 9, 9, 512)     |  2,359,808 |   Y   | ## +-----------------------------+-----------------------+------------+-------+ ## |    > block5_conv3 (Conv2D)  | (None, 9, 9, 512)     |  2,359,808 |   Y   | ## +-----------------------------+-----------------------+------------+-------+ ## |    > block5_pool            | (None, 4, 4, 512)     |          0 |   -   | ## | (MaxPooling2D)              |                       |            |       | ## +-----------------------------+-----------------------+------------+-------+ ## | flatten (Flatten)           | (None, 8192)          |          0 |   -   | ## +-----------------------------+-----------------------+------------+-------+ ## | dense_1 (Dense)             | (None, 256)           |  2,097,408 |   Y   | ## +-----------------------------+-----------------------+------------+-------+ ## | dense (Dense)               | (None, 1)             |        257 |   Y   | ## +-----------------------------+-----------------------+------------+-------+ ##  Total params: 16,812,353 (64.13 MB) ##  Trainable params: 9,177,089 (35.01 MB) ##  Non-trainable params: 7,635,264 (29.13 MB) # freeze only the last 5 layers freeze_weights(conv_base, from = -5) conv_base ## Model: \"vgg16\" ## +-----------------------------+-----------------------+------------+-------+ ## | Layer (type)                | Output Shape          |    Param # | Trai… | ## +=============================+=======================+============+=======+ ## | input_layer (InputLayer)    | (None, 150, 150, 3)   |          0 |   -   | ## +-----------------------------+-----------------------+------------+-------+ ## | block1_conv1 (Conv2D)       | (None, 150, 150, 64)  |      1,792 |   Y   | ## +-----------------------------+-----------------------+------------+-------+ ## | block1_conv2 (Conv2D)       | (None, 150, 150, 64)  |     36,928 |   Y   | ## +-----------------------------+-----------------------+------------+-------+ ## | block1_pool (MaxPooling2D)  | (None, 75, 75, 64)    |          0 |   -   | ## +-----------------------------+-----------------------+------------+-------+ ## | block2_conv1 (Conv2D)       | (None, 75, 75, 128)   |     73,856 |   Y   | ## +-----------------------------+-----------------------+------------+-------+ ## | block2_conv2 (Conv2D)       | (None, 75, 75, 128)   |    147,584 |   Y   | ## +-----------------------------+-----------------------+------------+-------+ ## | block2_pool (MaxPooling2D)  | (None, 37, 37, 128)   |          0 |   -   | ## +-----------------------------+-----------------------+------------+-------+ ## | block3_conv1 (Conv2D)       | (None, 37, 37, 256)   |    295,168 |   Y   | ## +-----------------------------+-----------------------+------------+-------+ ## | block3_conv2 (Conv2D)       | (None, 37, 37, 256)   |    590,080 |   Y   | ## +-----------------------------+-----------------------+------------+-------+ ## | block3_conv3 (Conv2D)       | (None, 37, 37, 256)   |    590,080 |   Y   | ## +-----------------------------+-----------------------+------------+-------+ ## | block3_pool (MaxPooling2D)  | (None, 18, 18, 256)   |          0 |   -   | ## +-----------------------------+-----------------------+------------+-------+ ## | block4_conv1 (Conv2D)       | (None, 18, 18, 512)   |  1,180,160 |   Y   | ## +-----------------------------+-----------------------+------------+-------+ ## | block4_conv2 (Conv2D)       | (None, 18, 18, 512)   |  2,359,808 |   Y   | ## +-----------------------------+-----------------------+------------+-------+ ## | block4_conv3 (Conv2D)       | (None, 18, 18, 512)   |  2,359,808 |   Y   | ## +-----------------------------+-----------------------+------------+-------+ ## | block4_pool (MaxPooling2D)  | (None, 9, 9, 512)     |          0 |   -   | ## +-----------------------------+-----------------------+------------+-------+ ## | block5_conv1 (Conv2D)       | (None, 9, 9, 512)     |  2,359,808 |   N   | ## +-----------------------------+-----------------------+------------+-------+ ## | block5_conv2 (Conv2D)       | (None, 9, 9, 512)     |  2,359,808 |   N   | ## +-----------------------------+-----------------------+------------+-------+ ## | block5_conv3 (Conv2D)       | (None, 9, 9, 512)     |  2,359,808 |   N   | ## +-----------------------------+-----------------------+------------+-------+ ## | block5_pool (MaxPooling2D)  | (None, 4, 4, 512)     |          0 |   -   | ## +-----------------------------+-----------------------+------------+-------+ ##  Total params: 14,714,688 (56.13 MB) ##  Trainable params: 7,635,264 (29.13 MB) ##  Non-trainable params: 7,079,424 (27.01 MB) # freeze only the last 5 layers, a different way unfreeze_weights(conv_base, to = -6) conv_base ## Model: \"vgg16\" ## +-----------------------------+-----------------------+------------+-------+ ## | Layer (type)                | Output Shape          |    Param # | Trai… | ## +=============================+=======================+============+=======+ ## | input_layer (InputLayer)    | (None, 150, 150, 3)   |          0 |   -   | ## +-----------------------------+-----------------------+------------+-------+ ## | block1_conv1 (Conv2D)       | (None, 150, 150, 64)  |      1,792 |   Y   | ## +-----------------------------+-----------------------+------------+-------+ ## | block1_conv2 (Conv2D)       | (None, 150, 150, 64)  |     36,928 |   Y   | ## +-----------------------------+-----------------------+------------+-------+ ## | block1_pool (MaxPooling2D)  | (None, 75, 75, 64)    |          0 |   -   | ## +-----------------------------+-----------------------+------------+-------+ ## | block2_conv1 (Conv2D)       | (None, 75, 75, 128)   |     73,856 |   Y   | ## +-----------------------------+-----------------------+------------+-------+ ## | block2_conv2 (Conv2D)       | (None, 75, 75, 128)   |    147,584 |   Y   | ## +-----------------------------+-----------------------+------------+-------+ ## | block2_pool (MaxPooling2D)  | (None, 37, 37, 128)   |          0 |   -   | ## +-----------------------------+-----------------------+------------+-------+ ## | block3_conv1 (Conv2D)       | (None, 37, 37, 256)   |    295,168 |   Y   | ## +-----------------------------+-----------------------+------------+-------+ ## | block3_conv2 (Conv2D)       | (None, 37, 37, 256)   |    590,080 |   Y   | ## +-----------------------------+-----------------------+------------+-------+ ## | block3_conv3 (Conv2D)       | (None, 37, 37, 256)   |    590,080 |   Y   | ## +-----------------------------+-----------------------+------------+-------+ ## | block3_pool (MaxPooling2D)  | (None, 18, 18, 256)   |          0 |   -   | ## +-----------------------------+-----------------------+------------+-------+ ## | block4_conv1 (Conv2D)       | (None, 18, 18, 512)   |  1,180,160 |   Y   | ## +-----------------------------+-----------------------+------------+-------+ ## | block4_conv2 (Conv2D)       | (None, 18, 18, 512)   |  2,359,808 |   Y   | ## +-----------------------------+-----------------------+------------+-------+ ## | block4_conv3 (Conv2D)       | (None, 18, 18, 512)   |  2,359,808 |   Y   | ## +-----------------------------+-----------------------+------------+-------+ ## | block4_pool (MaxPooling2D)  | (None, 9, 9, 512)     |          0 |   -   | ## +-----------------------------+-----------------------+------------+-------+ ## | block5_conv1 (Conv2D)       | (None, 9, 9, 512)     |  2,359,808 |   N   | ## +-----------------------------+-----------------------+------------+-------+ ## | block5_conv2 (Conv2D)       | (None, 9, 9, 512)     |  2,359,808 |   N   | ## +-----------------------------+-----------------------+------------+-------+ ## | block5_conv3 (Conv2D)       | (None, 9, 9, 512)     |  2,359,808 |   N   | ## +-----------------------------+-----------------------+------------+-------+ ## | block5_pool (MaxPooling2D)  | (None, 4, 4, 512)     |          0 |   -   | ## +-----------------------------+-----------------------+------------+-------+ ##  Total params: 14,714,688 (56.13 MB) ##  Trainable params: 7,635,264 (29.13 MB) ##  Non-trainable params: 7,079,424 (27.01 MB) # Freeze only layers of a certain type, e.g, BatchNorm layers batch_norm_layer_class_name <- class(layer_batch_normalization())[1] is_batch_norm_layer <- function(x) inherits(x, b
…
