…
  layer_dense(units = 64, activation = 'relu') %>% 
  layer_dense(units = 1, activation = 'sigmoid', name = 'main_output')
```

This defines a model with two inputs and two outputs:

```{r}
model <- keras_model(
  inputs = c(main_input, auxiliary_input), 
  outputs = c(main_output, auxiliary_output)
)
```

```{r}
summary(model)
```

```
Model
__________________________________________________________________________________________
Layer (type)                 Output Shape        Param #    Connected to                  
==========================================================================================
main_input (InputLayer)      (None, 100)         0                                        
__________________________________________________________________________________________
embedding_1 (Embedding)      (None, 100, 512)    5120000                                  
__________________________________________________________________________________________
lstm_1 (LSTM)                (None, 32)          69760                                    
__________________________________________________________________________________________
aux_input (InputLayer)       (None, 5)           0                                        
__________________________________________________________________________________________
concatenate_1 (Concatenate)  (None, 37)          0                                        
__________________________________________________________________________________________
dense_1 (Dense)              (None, 64)          2432                                     
__________________________________________________________________________________________
dense_2 (Dense)              (None, 64)          4160                                     
__________________________________________________________________________________________
dense_3 (Dense)              (None, 64)          4160                                     
__________________________________________________________________________________________
main_output (Dense)          (None, 1)           65                                       
__________________________________________________________________________________________
aux_output (Dense)           (None, 1)           33                                       
==========================================================================================
Total params: 5,200,610
Trainable params: 5,200,610
Non-trainable params: 0
__________________________________________________________________________________________
```

We compile the model and assign a weight of 0.2 to the auxiliary loss.
To specify different `loss_weights` or `loss` for each different output, you can use a list or a dictionary.
…
